…
      "\u001b[33mWARNING: Running pip as the 'root' user can result in broken permissions and conflicting behaviour with the system package manager. It is recommended to use a virtual environment instead: https://pip.pypa.io/warnings/venv\u001b[0m\u001b[33m\r\n",
      "\u001b[0m"
     ]
    },
    {
     "data": {
      "text/plain": [
       "==========================================================================================\n",
       "Layer (type:depth-idx)                   Output Shape              Param #\n",
       "==========================================================================================\n",
       "TinyVGG                                  [1, 3]                    --\n",
       "Sequential: 1-1                        [1, 10, 30, 30]           --\n",
       "    Conv2d: 2-1                       [1, 10, 62, 62]           280\n",
       "    ReLU: 2-2                         [1, 10, 62, 62]           --\n",
       "    Conv2d: 2-3                       [1, 10, 60, 60]           910\n",
       "    ReLU: 2-4                         [1, 10, 60, 60]           --\n",
       "    MaxPool2d: 2-5                    [1, 10, 30, 30]           --\n",
       "Sequential: 1-2                        [1, 10, 13, 13]           --\n",
       "    Conv2d: 2-6                       [1, 10, 28, 28]           910\n",
       "    ReLU: 2-7                         [1, 10, 28, 28]           --\n",
       "    Conv2d: 2-8                       [1, 10, 26, 26]           910\n",
       "    ReLU: 2-9                         [1, 10, 26, 26]           --\n",
       "    MaxPool2d: 2-10                   [1, 10, 13, 13]           --\n",
       "Sequential: 1-3                        [1, 3]                    --\n",
       "    Flatten: 2-11                     [1, 1690]                 --\n",
       "    Linear: 2-12                      [1, 3]                    5,073\n",
       "==========================================================================================\n",
       "Total params: 8,083\n",
       "Trainable params: 8,083\n",
       "Non-trainable params: 0\n",
       "Total mult-adds (M): 5.69\n",
       "==========================================================================================\n",
       "Input size (MB): 0.05\n",
       "Forward/backward pass size (MB): 0.71\n",
…
